…
from keras.models import Model
vgg_model=VGG19(input_shape=(50,50,3),include_top=False)
x=Flatten()(vgg_model.output)
prediction=Dense(2,activation='softmax')(x)
model=Model(inputs=vgg_model.input,outputs=prediction)
model.summary()
     
Model: "model"
_________________________________________________________________
 Layer (type)                Output Shape              Param #   
=================================================================
 input_1 (InputLayer)        [(None, 50, 50, 3)]       0         
                                                                 
 block1_conv1 (Conv2D)       (None, 50, 50, 64)        1792      
                                                                 
 block1_conv2 (Conv2D)       (None, 50, 50, 64)        36928     
                                                                 
 block1_pool (MaxPooling2D)  (None, 25, 25, 64)        0         
                                                                 
 block2_conv1 (Conv2D)       (None, 25, 25, 128)       73856     
                                                                 
 block2_conv2 (Conv2D)       (None, 25, 25, 128)       147584    
                                                                 
 block2_pool (MaxPooling2D)  (None, 12, 12, 128)       0         
                                                                 
 block3_conv1 (Conv2D)       (None, 12, 12, 256)       295168    
                                                                 
 block3_conv2 (Conv2D)       (None, 12, 12, 256)       590080    
                                                                 
 block3_conv3 (Conv2D)       (None, 12, 12, 256)       590080    
                                                                 
 block3_conv4 (Conv2D)       (None, 12, 12, 256)       590080    
                                                                 
 block3_pool (MaxPooling2D)  (None, 6, 6, 256)         0         
                                                                 
 block4_conv1 (Conv2D)       (None, 6, 6, 512)         1180160   
                                                                 
 block4_conv2 (Conv2D)       (None, 6, 6, 512)         2359808   
                                                                 
 block4_conv3 (Conv2D)       (None, 6, 6, 512)         2359808   
                                                                 
 block4_conv4 (Conv2D)       (None, 6, 6, 512)         2359808   
                                                                 
 block4_pool (MaxPooling2D)  (None, 3, 3, 512)         0         
                                                                 
 block5_conv1 (Conv2D)       (None, 3, 3, 512)         2359808   
                                                                 
 block5_conv2 (Conv2D)       (None, 3, 3, 512)         2359808   
                                                                 
 block5_conv3 (Conv2D)       (None, 3, 3, 512)         2359808   
                                                                 
 block5_conv4 (Conv2D)       (None, 3, 3, 512)         2359808   
                                                                 
 block5_pool (MaxPooling2D)  (None, 1, 1, 512)         0         
                                                                 
 flatten (Flatten)           (None, 512)               0         
                                                                 
 dense (Dense)               (None, 2)                 1026      
                                                                 
=================================================================
Total params: 20025410 (76.39 MB)
Trainable params: 20025410 (76.39 MB)
Non-trainable params: 0 (0.00 Byte)
_________________________________________________________________


model.compile(Adamax(learning_rate=0.0001), loss='binary_crossentropy', metrics=['accuracy'])
…
